discriminator.pth (torch, 328850 bytes, 9 tensors)

conv1.weight f4 [64, 1, 3, 3]
00000000: 0aec ff3d 2f36 47be c7eb 6c3b 5f95 f6bd
00000010: 9db1 60be e1e9 78be 6014 a0bd 654b 6fbe
00000020: 7cfb 9ebd 2833 893e a40e 88be 29cb f3bd
00000030: 343c dfbe 9f8f 093e 2f62 273e aab9 ab3e
00000040: 9aeb 0dbe c465 d2bd 7553 a43e 1a2f d8bd
00000050: 5553 65be c198 883d 8639 adbe 08fd 90bd
00000060: cd08 933e 9298 4a3e 9c3f acbe 2290 cb3d
00000070: a5d3 d3bd 9922 3b3e c070 ab3e 8c07 90be
00000080: 4984 25bd f877 7ebe a5cd 3c3e f8c3 19be
00000090: 13fd a93e ce25 2c3e 816a 013e bce4 683e
000000a0: f1a0 70bd 8322 a2bb 7a17 c43d 125b 8ebc
000000b0: 16ec 703e d55b 09be daa6 45be dba9 193e
000000c0: a804 bb3d b88a 36be d6ce c7bd 8dfa 0fbe
000000d0: 4e35 823d b0f8 eb3c 57dc a3be 2eeb 0e3e
000000e0: 7bb3 a6be db78 49be 1371 a03e ba95 97be
000000f0: c880 823b 9634 383e 329d edbd 5a64 243e
00000100: cf9c 48be 0ef0 163e bb74 a5bd fb1e 1bbe
00000110: b4e8 973d 8120 5a3e 229a 273e c1db 1dbe
00000120: 2eb4 62be 65b9 02be 3861 a0be 8c0c 81bd
00000130: 54c8 31be c005 8a3c cb9d 643e 12a8 a1bd
00000140: 096a 223e 8be0 22be 2451 9dbe 2e1f c9bd
00000150: 7ae0 183d 215c 0cbe 1802 f2bd dc01 7b3c
00000160: 61ca fbbd 18ff ccbd 0de7 7f3c 7132 943e
00000170: 9f17 6dbe 6a76 503e c731 ad3e d89d 3dbe
00000180: f3f7 9cbe 96cc cd3e dae0 9e3e 45d9 e2bd
00000190: c29e d83d 5d45 003e fd83 953e 612d 6d3d
000001a0: 0ddd 303e 6fe3 4dbe cb85 343e 9acb 003e
000001b0: fed8 c5bd 44c8 43be 5115 a9be 75ae 213c
000001c0: 168e e23d c2d3 963d d4c4 24be 20fa 1e3e
000001d0: 6448 83bd b6b4 55be 35e9 ba3c 92af 1cbc
000001e0: f2a6 ac3e 319d 7b3c aa46 dfbc 0fff 64be
000001f0: b34d 0b3e ee72 3a3e 6f33 b13d 6be1 653b
00000200: f5a2 81be ca5d 343e 2dc9 c3bd 58c7 e8bd
00000210: bc27 533d 849d 6dbe 6644 473e e341 58be
00000220: 2f73 2cbd 0ec1 2fbd fcb3 20be 11e4 923e
00000230: 60a9 9bbd 0e28 a4be c363 0a3c 6f77 303e
00000240: c1af ad3e 10ac 9fbd a601 0b3e f2f6 6fbe
00000250: f099 87bd 5808 943d f01a 3d3e 9b6b 8abe
00000260: da2a 69bd b80d 8abe 50e4 273e 203c d93d
00000270: 1502 403e f043 b33e bf0a a7be 005d a3be
00000280: c552 26be 1f0b 2bbd d9ff 733d ef07 143e
00000290: 7668 a8be a5e9 90be 9a37 963e 73d5 f93d
000002a0: 68e7 503b 4120 8fbd 7b99 893e e719 143e
000002b0: 85e4 313d 372d 9e3d e9ad fbbc 226c a03d
000002c0: a186 fcbd 8f67 06be 6b66 e1bd 9b5c 60be
000002d0: f7b4 0abe 24ca 4b3e c3a4 a3be 1a4b 7b3e
000002e0: ee15 c4be d155 d53c bb74 b6bd 5018 32bd
000002f0: 2da7 a23e c1be 993e 29cb afbb 7611 583e
00000300: 7ab6 7c3e ee77 953d 1bd8 a5be a90b a43d
00000310: 900f 983d 7522 a4bd 814e 833e a838 47be
00000320: a1bd 03bd b6b2 87bd e6d3 8c3e 120b 553d
00000330: b6e5 a43d 9aa8 41be 7ee4 943e a9b0 8cbe
00000340: 7255 5e3e 8110 813e c24c 923e 8e89 853d
00000350: 9774 1ebe 5449 d7bc 5244 b3be 0ec2 d73d
00000360: 80d9 88be 0079 0abe d31d 973e 12e4 8e3e
00000370: 6cb2 65be 7a47 d3bd b3f2 403e 95fa 79be
00000380: 52dc 813d b879 9f3e be99 73be c62b 1b3e
00000390: 9824 f83d f6f4 a23e 6095 e43d 0789 133e
000003a0: c75a 12be 5f8b a6bd 517e 94be c1dd 8fbe
000003b0: da52 893d d67d 853d 9329 07be 4a70 f83c
000003c0: eef1 773e 2295 dbbd ca46 663e fcdf 3c3d
000003d0: ae12 433e b792 5b3d 6c8d 1bbe a173 08bb
000003e0: f1cb 78bc bc79 edbd 8294 54be f691 c3bd
000003f0: 7e19 30be e266 91be cb2b 4c3e 4649 03be
0.12496193 -0.19454263 0.0036151276 -0.12040209 -0.21942754 -0.24307968 -0.07816386 -0.23368604
-0.077628106 0.26796842 -0.2657367 -0.11903984 -0.4360062 0.13433693 0.16346048 0.33540088
-0.13859406 -0.102733165 0.32094923 -0.10555859 -0.2239507 0.066697605 -0.3383295 -0.07079512
0.28717652 0.19784763 -0.3364228 0.099396005 -0.10343102 0.18274917 0.3348446 -0.28130758
-0.04040936 -0.24850452 0.18437822 -0.15016162 0.33200893 0.16811296 0.12638284 0.22743505
-0.058747236 -0.004947962 0.0957479 -0.01737741 0.2352756 -0.13413937 -0.1930193 0.15006201
0.091317475 -0.17826355 -0.09756248 -0.14060421 0.06357823 0.028805107 -0.32004043 0.13956901
-0.32558808 -0.19675009 0.3133627 -0.2960642 0.003982637 0.1798881 -0.11602248 0.16053906
-0.19591068 0.14740011 -0.08078905 -0.15148537 0.074174315 0.21301462 0.16367391 -0.1541586
-0.22139046 -0.12766035 -0.31324172 -0.06301221 -0.17361575 0.016848445 0.22325818 -0.07893385
0.15860762 -0.15905969 -0.30725968 -0.098204 0.037323453 -0.1370702 -0.118168056 0.0153202675
-0.1229446 -0.10009593 0.015619052 0.28944734 -0.23153542 0.20357671 0.3382704 -0.18517244
-0.3065792 0.4019515 0.31030923 -0.11076597 0.10577156 0.1252646 0.29202262 0.057904605
0.17271824 -0.2010629 0.17629163 0.12577668 -0.096605286 -0.19119364 -0.33024076 0.009868254
0.11062257 0.07364608 -0.16090709 0.15525103 -0.06410292 -0.20869717 0.02281628 -0.009563344
0.3372112 0.015357302 -0.027255375 -0.22362922 0.13603859 0.18207905 0.08652388 0.0035076987
-0.2531964 0.17613903 -0.095598556 -0.11366147 0.051551566 -0.23204619 0.19459686 -0.21118884
-0.042102035 -0.04290872 -0.15693659 0.28689626 -0.07600665 -0.3206181 0.008446637 0.1723306
0.33923152 -0.0779649 0.13574848 -0.23434046 -0.06621158 0.07228154 0.18467307 -0.2703522
-0.056925632 -0.26963592 0.16395688 0.10607171 0.18750794 0.3501277 -0.32625386 -0.3190689
-0.16242512 -0.041758653 0.059570167 0.14456151 -0.32892197 -0.28303257 0.29339296 0.12198915
0.003187621 -0.06988574 0.2687491 0.14463006 0.043430824 0.07723468 -0.030722575 0.07833125
-0.12330366 -0.13125442 -0.11005863 -0.21910326 -0.13545595 0.1990133 -0.3196164 0.24540368
-0.3829798 0.026041897 -0.08908983 -0.043480217 0.3176817 0.30028346 -0.0053647947 0.21100411
0.24678984 0.072982654 -0.32391438 0.080100365 0.07424843 -0.08014385 0.2564583 -0.19455206
-0.032163266 -0.06625883 0.27505416 0.05201251 0.080516264 -0.18911973 0.29080576 -0.2747853
0.21712282 0.25207904 0.28574187 0.06520377 -0.15474163 -0.026280083 -0.35013062 0.1053506
-0.2672844 -0.1352272 0.29514942 0.2790838 -0.22431344 -0.103163674 0.18842582 -0.24411996
0.06340851 0.31147552 -0.23789117 0.15153417 0.12116355 0.31827515 0.111613035 0.1440774
-0.14292441 -0.08132052 -0.29002622 -0.28098872 0.06705256 0.06518142 -0.13199453 0.030326981
0.24213383 -0.10721804 0.22487941 0.046112046 0.19050094 0.053606715 -0.15190667 -0.0020820873
-0.015185342 -0.115954846 -0.20759776 -0.09549324 -0.17197224 -0.28398806 0.1993858 -0.1282092

conv1.bias f4 [64]
00000000: 160e 383d 51b8 3fbe 9aab 26be 3c40 a83e
00000010: 4bc2 e3bd 668d a9be 6a33 a9be 09fc 7b3d
00000020: 9861 e03d 1aca afbe fbc5 f0bd 560d 393e
00000030: e3c0 42bc 8fd6 803e 0fbb b53c 9fb9 3a3e
00000040: f04e f83d 96f3 9fbe 128b 563e 2c45 3e3e
00000050: 8769 5cbe f14a 40bd 9786 3d3e 16fc 013e
00000060: ea85 10be 1ce3 f43d 655b 20be 5976 393e
00000070: befb 913e dfd3 8e3d 0315 d23d 2c2a d53c
00000080: f61b 7abd 3816 8d3e 380e 963e f971 80be
00000090: 82d2 403e 91e3 ecbc 0d7f 4bbe 3939 43bd
000000a0: dafe 3cbe 286b 9d3e 2f70 c4bd d80e 9b3e
000000b0: 515a 4a3d 106f 673e e4c2 ee3d f70d 5a3e
000000c0: 3ad4 d8bd 5990 6bbe e4e8 bb3c 0a8d 1abe
000000d0: 2d36 9dbd 2352 6a3e 2a70 bbbd eecc a53e
000000e0: dbf1 593e 6a28 a83d 10a1 8c3e 8981 033e
000000f0: 886e 923e 5c76 9c3e 40be 8d3e 90b7 52be
0.04493531 -0.18722655 -0.16276398 0.32861507 -0.11121043 -0.3311569 -0.33047038 0.061519656
0.109561145 -0.3433388 -0.11756512 0.18071494 -0.011886808 0.25163695 0.022183923 0.18234871
0.12124431 -0.3124053 0.20951489 0.18581074 -0.2152463 -0.04694647 0.18508373 0.1269382
-0.14113584 0.1195738 -0.15659864 0.18111552 0.28512377 0.06974005 0.10257914 0.026021086
-0.061061822 0.27556014 0.29307723 -0.25086954 0.18830302 -0.028917106 -0.19872685 -0.047661994
-0.18456593 0.30745816 -0.0959171 0.30284762 0.04940254 0.2260096 0.11658266 0.2129439
-0.10587354 -0.23004283 0.0229382 -0.15092865 -0.07676349 0.22882895 -0.09152253 0.3238291
0.21283667 0.08210833 0.2746663 0.12842382 0.28599954 0.3055905 0.27684212 -0.20577836

conv2.weight f4 [128, 64, 3, 3]
00000000: 9bb0 fdbc 36fa 153d 6bf2 90bb 499b 083d
00000010: e46c 003d 84ac ddbb bf22 b53b e6cb 473c
00000020: 989e 483c f47e 3cbc da58 f139 6e06 773c
00000030: 94dd 1bbd f506 f7bc 9c7f c2bc 9efe 4c3c
00000040: cd88 05bd e1fa 5bbc 64f2 a5bd d62f bebc
00000050: 2ecb a6bb 8c04 6cbc c766 813c c1d4 0e3b
00000060: 0e74 95bd 0e27 9a3c 9335 cebc 13bd 8bbc
00000070: 61dc c3bc 8618 05bb b7ac 32bc 413b b63c
00000080: 9bd8 1b3c 3687 c5bc 4bcd 8f3c 7639 27bc
00000090: ba2f 0b3b b076 0b3d 0ed8 6abc c366 053d
000000a0: 7e99 1c3d 24dc 123d 1c88 8d3c b4b2 be3c
000000b0: 21c8 e73c 76c9 743d 67e2 aebb 1529 1e3d
000000c0: f4bb 7d3c 2b9f 4ebc 841d 3c3d c323 a0bc
000000d0: 68be ae3c 0748 5e3b 24b3 f6bb d1bd f7bb
000000e0: fb54 103d 63d4 0c3b 610a 953c a245 b13c
000000f0: 88bc 0cbd 247f 8cbc 0437 163d ee2a 053c
00000100: 5002 38bd a550 003c 04d1 c9bc 09ae a3bb
00000110: 69cd 4abd b67a a5bb d017 3dbc 1f9a ccba
00000120: d805 063d 85ef 13bd 25ce 0fbd 01f8 073d
00000130: 293e 42bc 7d31 dd3c d2e5 b93c 8249 d0bb
00000140: c80c 91bc c7bd b839 5832 683c 1a3f 3d3d
00000150: df69 9dbc 29a5 0cbd 679d 9dbb 859e eb3b
00000160: 8cae 173d f3e2 e6bc 2227 df3c 073e ac3c
00000170: 7a43 a93b fa40 d7bb 126c f93c 8aef 503c
00000180: 6c96 29bd 078b 8ebc c8a8 b63b 47f2 fa3c
00000190: 66c6 cdbb 434c 3d3d cf3f 713c f71f 3f3d
000001a0: ef1c cf3c 537c 373d c341 2b3c b190 d73c
000001b0: d0ff c8bc 00a7 d43c 44de 2c3b ca19 483d
000001c0: 2482 87bc 67a8 e73c 45eb 0dbc 9d89 933c
000001d0: aa50 4ebc 6588 53bb f517 0bbc 7042 bf3b
000001e0: 3e10 b53c 504e d0bc 4917 313c fb9c 3ebc
000001f0: 9ab7 2b3b 2bd7 053d 39ca 0a3b 14c5 0bbd
00000200: 973c 5cbc eb8c 4b3d 67e7 b73c 8729 133d
00000210: 60d1 fbbc 87e3 853c 20bb 32bc 3f42 17bd
00000220: 35c7 82bc 4750 38bc aab4 f93c 594c 87bc
00000230: 0666 74bc 2373 3d3c 4031 e7bc 85c8 fdbb
00000240: a474 73bb f75b 0abc 643c a3bc 857b b73c
00000250: c2ac ef3c 14d5 523c bc70 063c 7912 9fbb
00000260: e10a 29bd ee9b b0bc 50f3 9bbc 3dfc 3fbd
00000270: 9caf 15bd 4799 a5bd e93a f8bc e822 a5bc
00000280: 9c55 bcbc 4551 57bc 4744 b33c bfb5 3bbd
00000290: 7aae af3c 6ceb 36bc b753 13bd cc85 3f3c
000002a0: 8548 ae3c f445 8b3c afe8 953c 1de7 b53b
000002b0: a28e 07bd d1d0 28bc 67a3 35bc 4449 0f3d
000002c0: 7832 2cbc 6a1d 5c3a b001 da3c a641 e1bb
000002d0: 3a4d d0ba c3f6 66bb f5dc ea3c 3b85 84bc
000002e0: 68df 95bd 43e7 3abd 439f 06bd 2edb c03c
000002f0: 8dde e3bc a632 e9bb 9013 b0bb b449 3ebc
00000300: 35df 57bc 48d2 6abc b8a7 77bc a300 233d
00000310: 28e4 223d 0d81 02bd 15fa a3bc e9a9 a9bc
00000320: b478 1fbc c821 13bc 3a91 e13b ddb8 40bc
00000330: 9fd2 18bd 605b 61bc df62 ec3c c917 04bd
00000340: 9c58 81bc 94a5 903c ab92 053c 1ae0 c0bc
00000350: abee bb3c 56d2 80bc 12fa 9239 1983 35bd
00000360: 6ba9 0cbc 255b 2fbd 7243 9bbc 0813 a8bd
00000370: 54b1 71bd 860c f8bb b7a1 43bd fbfd e4ba
00000380: 97a5 4bbc 1e61 47bc 912f 29bc 5577 a03b
00000390: 67c5 323b e2bc f6bb 646f ff3b a7ba 9bbc
000003a0: 9bcd eb3c 3a72 16bd 9dbc f8bc f281 54bc
000003b0: 0dfe ad3c 3738 8ab7 f144 f8bc 2921 0dbd
000003c0: 69f5 d7bc 1a95 40bd 2d1e 8e3b da2f c33c
000003d0: 9918 24bd b73d 60bb 681d 41bb 25e0 9cbc
000003e0: 5fac 263a 2ad6 27bd c3b9 88bb 339b 943c
000003f0: 4462 543c 7f85 1a3c 09f1 c2bb a369 85bc
-0.030968001 0.036615573 -0.0044234297 0.033351216 0.031353846 -0.00676495 0.0055278237 0.012194609
0.012244843 -0.011504877 0.00046033302 0.015077217 -0.03805311 -0.030154685 -0.02374249 0.012511877
-0.032601167 -0.013426513 -0.08102873 -0.02321617 -0.005090139 -0.014405381 0.015796078 0.0021794292
-0.07297526 0.01881745 -0.02517203 -0.017057931 -0.023908796 -0.0020308807 -0.010905436 0.022245051
0.009512092 -0.024112325 0.017553946 -0.010206571 0.0021238164 0.034048736 -0.014333738 0.032568704
0.03823232 0.035854474 0.017276816 0.023278572 0.028293671 0.05976244 -0.005337048 0.038613398
0.015486706 -0.012611191 0.045926586 -0.019548303 0.021331027 0.0033917443 -0.0075286794 -0.0075604697
0.035237294 0.0021488897 0.018193426 0.021639649 -0.034359485 -0.01715047 0.03667356 0.008127911
-0.04492408 0.007831727 -0.0246358 -0.004995112 -0.0495123 -0.0050500287 -0.011541322 -0.0015609897
0.032720417 -0.036117096 -0.035108704 0.0331955 -0.01185564 0.027001137 0.022692595 -0.006356419
-0.01770629 0.0003523661 0.014172159 0.046202756 -0.019215522 -0.034337196 -0.0048100236 0.007190528
0.037031695 -0.02818439 0.02724034 0.02102567 0.0051655145 -0.006569025 0.03044704 0.012752423
-0.04140322 -0.017400278 0.0055743195 0.030633105 -0.0062797545 0.046215307 0.014724686 0.046661343
0.025282351 0.0447963 0.0104526905 0.026314111 -0.024536043 0.025958538 0.0026377598 0.04885272
-0.016541548 0.028278543 -0.00866205 0.018009955 -0.012592474 -0.0032277342 -0.0084895985 0.0058367774
0.022102471 -0.025427967 0.010808774 -0.011634107 0.0026201964 0.032675903 0.0021177663 -0.034123495
-0.01344218 0.049694937 0.022449208 0.035928275 -0.030739486 0.016343845 -0.010908872 -0.03692841
-0.01596413 -0.011249608 0.030481655 -0.016515898 -0.014916902 0.011563095 -0.028221726 -0.007744851
-0.003714838 -0.008444778 -0.019926257 0.022397766 0.029257182 0.012868185 0.008205589 -0.004854497
-0.04127014 -0.021558728 -0.019036919 -0.046871413 -0.036544427 -0.08085876 -0.030301528 -0.020158246
-0.02299004 -0.013141935 0.021883143 -0.045827623 0.021445502 -0.011164527 -0.03596851 0.0116896145
0.021274814 0.01700113 0.018299429 0.0055512325 -0.03309501 -0.010303692 -0.011086321 0.03498198
-0.01051008 0.0008396717 0.026612133 -0.006874281 -0.0015892156 -0.0035242296 0.028669814 -0.01617681
-0.07318002 -0.045630705 -0.032866728 0.023542013 -0.027816081 -0.0071166335 -0.005373426 -0.011614252
-0.013175775 -0.0143323615 -0.015115671 0.03979553 0.039768368 -0.031861354 -0.02001671 -0.020710902
-0.009733368 -0.008980222 0.0068837674 -0.011762825 -0.03731024 -0.013754696 0.02885574 -0.032249246
-0.015789323 0.017657079 0.008152644 -0.02354436 0.022940954 -0.015725296 0.00028033607 -0.044314478
-0.008585314 -0.04281153 -0.018953059 -0.08206755 -0.059007004 -0.0075698523 -0.047761645 -0.0017470712
-0.012429616 -0.012169151 -0.010326282 0.004897038 0.0027278305 -0.007529841 0.007795261 -0.019009901
0.028784564 -0.03673003 -0.030363375 -0.0129704345 0.021239305 -1.6477059e-05 -0.030306311 -0.034455452
-0.026362138 -0.047017194 0.0043370933 0.023826528 -0.04006252 -0.0034216472 -0.002946699 -0.01914985
0.0006358083 -0.040975727 -0.004172535 0.018140411 0.0129628815 0.009431242 -0.005949144 -0.016285723

conv2.bias f4 [128]
00000000: f2d1 bebc 92b2 033d 21fd 8b3c 087d 0dbd
00000010: 9f72 97bc 3639 32bd ef9a f93c 6fd9 023c
00000020: 48bb 543b b1ba eabb 16a8 4fbc 1b28 1fbd
00000030: 0ad0 673c fbb3 87bb 05ee c73c f684 a83c
00000040: 6b3a 8abc de40 14bd 3fe7 ccbc 4cab e53b
00000050: ed77 5abc a33e 113b 50ec d9bc 53b9 22bd
00000060: 0065 19bd 56f2 8cbc dd54 8d3c a677 a63c
00000070: df88 323b 620e 113b f401 8a3c efb1 ffbc
00000080: 28d9 c03c 605b 813c 34d0 393d 0258 943c
00000090: d013 a0bc 413d 4fbc 9b4a 10bb 73d1 b0bc
000000a0: 1198 73bb a975 ebbb 3e33 03bc 9f96 4fbc
000000b0: 5ecb c9bc 77e8 0cbc daa5 09bd 0645 343d
000000c0: 26e6 6ebd d3f7 153d a939 0d3d 8d0c 1f3d
000000d0: c7de f8bc 35d8 c33c bd38 1fbd b3fb 0cbd
000000e0: 33a6 44bc afec 5e3b 1227 55b9 1e6c f0bc
000000f0: 9a7a e1bc 1f79 4a3c 8cb6 fd3c 07ac 5bbc
00000100: c63f 09bd 5740 ed3c a37c 0e3d 2b08 9d3c
00000110: 934d 7ebc 053f 5dbd 46f6 2439 0ceb 48bd
00000120: 9dd0 b93c 1a1d d93b d83d ba3b cdc0 3fbb
00000130: f6ff a9ba aee5 0c3c d8ea 1ebd 6c8d 19bc
00000140: 98d7 0eba 596a 1a3d b3d1 893a 07e3 de3c
00000150: 0c66 48bd ce3e cfbc a4af 1fbd e0a2 1b3d
00000160: 760f 22bd c23c c73b 770a 023d 0b92 25bd
00000170: 881f 153b 81f8 973c 7f1b 2f3d 3bc8 2f3c
00000180: 5d0d 16bd 0e9b 2bbd 8a20 8f3c a2ae f4bc
00000190: acd3 a8bb 4707 b7bb ceca 65bb 1d87 0dbd
000001a0: 3ecc 11bd 2264 203c 80b4 4a3a 07d5 653c
000001b0: b5df 013c fe5b 15bd 6632 0fbc b0b7 8f3b
000001c0: 3447 18bc 8f82 153d ba8d ba3c 21db 1b3d
000001d0: dc94 533c 2ee5 29bc 3575 a53c 07c3 76bc
000001e0: 5f75 1bbd c272 0fbb 360d 2d3b 5e24 18bd
000001f0: 0ba8 72bd e6f9 36bc faa4 06bd 76a0 08bd
-0.02329347 0.03215272 0.017088475 -0.034543067 -0.018487273 -0.04351159 0.030469386 0.0079864105
0.003246026 -0.0071633686 -0.012674352 -0.038856607 0.0141487215 -0.0041413284 0.024405489 0.020571213
-0.016873559 -0.036194675 -0.02501261 0.0070089456 -0.013334257 0.0022162579 -0.02660194 -0.03972752
-0.037449837 -0.017205399 0.01725238 0.020320725 0.0027242226 0.0022133817 0.016846634 -0.031212775
0.023541048 0.015790641 0.045364574 0.018108372 -0.019540697 -0.012648881 -0.0022017125 -0.021584248
-0.0037169496 -0.007185657 -0.008007823 -0.012670188 -0.024633106 -0.008600346 -0.033605434 0.04401114
-0.058324955 0.036613297 0.034478817 0.03883033 -0.030379666 0.023906806 -0.03887247 -0.034419727
-0.012002516 0.0034015586 -0.00020327818 -0.02934843 -0.027524281 0.012357979 0.030970834 -0.013407714
-0.033508085 0.028961344 0.03478683 0.019168934 -0.015521425 -0.05401518 0.00015732003 -0.049052283
0.022682482 0.0066257836 0.005683642 -0.0029259205 -0.0012969959 0.008599682 -0.038798183 -0.0093720965
-0.0005448996 0.037699077 0.0010514766 0.027207864 -0.048925444 -0.025298502 -0.038985863 0.037997127
-0.039565526 0.006080241 0.03174826 -0.04042248 0.002275439 0.018551113 0.04275083 0.010728891
-0.036633838 -0.04189592 0.01747157 -0.029868428 -0.0051521864 -0.0055855843 -0.0035063508 -0.034552682
-0.03559517 0.0097894985 0.0007732585 0.01402784 0.007926871 -0.036464684 -0.008740043 0.004385911
-0.00929432 0.036501464 0.022772659 0.038050774 0.012913909 -0.010369582 0.02019749 -0.015061147
-0.03795373 -0.002188847 0.002640558 -0.037144057 -0.05924229 -0.011167979 -0.032872178 -0.033356152

bn1.weight f4 [128]
00000000: 19ef 8c3f feb4 8e3f 368d 893f 5ed5 8b3f
00000010: 2e5a 903f 5442 8f3f 996b 913f ad62 8d3f
00000020: 107d 923f 44da 8c3f bef2 883f dae8 863f
00000030: c11b 8a3f d429 883f be25 9c3f a8cd 893f
00000040: ecd4 8a3f ed1a 923f c14b 873f 5b43 893f
00000050: 3716 893f efad 903f 37d8 8b3f 90d8 893f
00000060: 9db8 873f e961 8b3f 8feb 8a3f 2dd2 893f
00000070: bd44 8b3f 605a 923f 9dd2 893f 5571 883f
00000080: 390b 883f 695a 8c3f b22a 883f b21e 8b3f
00000090: dd46 883f 14f0 8a3f e3f6 893f e2f4 873f
000000a0: 995f 8e3f c251 8d3f f109 883f 969b 8a3f
000000b0: df74 8d3f b58a 993f 8a85 873f 75a3 893f
000000c0: 9d75 883f aa52 8a3f 13ad 893f 10ce 8f3f
000000d0: 1d98 8c3f a76e 8e3f 998d 8c3f efe1 8e3f
000000e0: 9736 8c3f 26b9 893f 288f 933f bcb5 8a3f
000000f0: 4f4d 8b3f 2402 873f b041 913f 0ef5 883f
00000100: 5d30 8a3f a004 8d3f e131 8c3f 0b42 893f
00000110: b160 883f 5d97 923f 8d8a 8a3f 5540 8a3f
00000120: ab57 8c3f 1917 893f f109 8b3f d765 883f
00000130: 37ba 883f 3936 8e3f 5a8d 8c3f 515e 873f
00000140: 44b3 883f 4805 8b3f 5891 8d3f 4a02 913f
00000150: 9db6 893f 9842 893f 73a6 8c3f 1683 8b3f
00000160: 100b 893f bc48 883f 0f53 8a3f fe67 893f
00000170: 7e07 8b3f 530f 8b3f 0777 893f 04ff 923f
00000180: 940e 893f a1a0 873f 4b15 8a3f 0a3c 8a3f
00000190: e5f2 883f 9228 873f e465 8a3f abc2 893f
000001a0: c904 913f 833d 8b3f d81e 883f 5fae 8e3f
000001b0: 4b8f 8a3f c1bd 8a3f 17c4 893f 6ebf 863f
000001c0: 73a0 8d3f 6941 8b3f 8fee 8b3f 51f8 923f
000001d0: 6d72 883f 2244 8e3f b1f9 893f 036a 8f3f
000001e0: 356a 893f 1340 8c3f d790 8c3f 392e 8b3f
000001f0: 1c17 8b3f 6de8 963f 4207 8c3f 8b02 8c3f
1.1010467 1.1148984 1.0746219 1.092449 1.1277521 1.1192117 1.1360961 1.1045738
1.1444416 1.1004109 1.0699079 1.0539811 1.078972 1.0637765 1.2199018 1.0765886
1.0846229 1.1414467 1.0569993 1.072368 1.0709904 1.130308 1.0925359 1.0769215
1.0603215 1.0889255 1.0853137 1.0767266 1.0880352 1.143383 1.0767399 1.0659586
1.0628425 1.0965091 1.063803 1.0868742 1.0646626 1.0854516 1.0778469 1.0621607
1.1122924 1.1040576 1.0628034 1.0828731 1.1051291 1.1995455 1.0587628 1.0753008
1.0660893 1.0806477 1.0755943 1.123476 1.0983921 1.1127518 1.0980712 1.11627
1.095416 1.0759628 1.1528063 1.0836711 1.0882968 1.0547528 1.1348171 1.0699785
1.0796009 1.1017036 1.0952722 1.072328 1.0654508 1.1452442 1.0823532 1.0800883
1.0964254 1.0710174 1.0862409 1.0656079 1.0681828 1.1110297 1.0980637 1.0575658
1.0679708 1.0860987 1.105998 1.1328824 1.0758854 1.0723448 1.0988296 1.0899379
1.0706501 1.0647197 1.0806597 1.0734861 1.0861661 1.0864052 1.0739449 1.1484075
1.0707574 1.0595895 1.0787748 1.0799572 1.0699126 1.0559256 1.0812345 1.0762533
1.1329585 1.0878147 1.0634413 1.1146964 1.082498 1.0839158 1.0762967 1.052717
1.106459 1.0879337 1.0932177 1.148203 1.065992 1.1114542 1.0779325 1.1204227
1.0735537 1.0957054 1.0981702 1.0873481 1.0866427 1.1789681 1.0939715 1.0938276

bn1.bias f4 [128]
00000000: 8734 243c ad76 4bbc 6cd2 253a 0a7c b53c
00000010: 6bed ff3b d003 59bc 214f b7bb 6db0 353c
00000020: fb57 e3bb ddb7 fdbb e6a4 abbb 5b4f 6639
00000030: fd65 b33c 46f9 4a3c 8673 b5bb e9fd 9ebb
00000040: 010e ddbb 6160 0abc 8034 d73b f96a 943b
00000050: f60c 58bb b021 77bc 003d aebb b4c5 a23b
00000060: f3c7 34bc b9ab 4f3b 7aa1 753c 0149 1ebc
00000070: 0d4c 91bb 70c0 953c 7a5e 42bc b16a 403c
00000080: a593 373c 98ef a8bc 70ba b3bb 3a47 663c
00000090: 4d3f 373b 6a64 2bbc 14d0 773c 0a80 b1bb
000000a0: dd49 b43c 95ee 4cbc ca86 13bc e96f 63bb
000000b0: 6a4d 34bc 9a15 96bb f8d6 163c ed67 06bc
000000c0: 9ce3 023c 6d08 4b3c 04e6 03bc dce3 cfb8
000000d0: 6082 3c3c a5a6 8abb dedc febb 00b7 3c3c
000000e0: 7b05 493c 77fc 21bc 2997 1bbc d255 803b
000000f0: b96b 23bc 48a2 a4bb 4b08 14bc dc7f b4bc
00000100: 3c82 6f3c bca6 deba 3389 ea3b 2d45 5a3c
00000110: 86a3 63bb e194 ba3c dbb3 c23b 0a99 debb
00000120: 5b52 343c 656a 2fbc 3c0f 0a3c 6b63 39bb
00000130: 1e63 353b 3acf 413c cd6c bd3b 1fe6 9c3b
00000140: 0316 babb 022c 0fbc 1cf2 04bc ee89 26bc
00000150: 7c4f 71bb a05e b23c df8e 073c ab53 6abc
00000160: 8b02 073c f2d4 cfbb 387a 3ebb 8ca9 01bc
00000170: b3e3 50bb 6a16 40bc 4c2f 6cbc 5fb6 723a
00000180: f7aa 783b c148 4d3a 75b0 4abc 83b8 bdbb
00000190: 0c6a cf3b a4fb 9a3b 38d4 2c3b 38ca ed3b
000001a0: 561e bb3b 533a afbb 9155 a73b 4714 e0bb
000001b0: badf 00bb c478 13bb c0b1 cfbb bb6a 803b
000001c0: 68b2 ae3a da8c 87bc fd85 ee3b 7f30 cbbb
000001d0: 68c0 e9ba f72f 803b eabd 16bc 489d c13a
000001e0: 2728 c4bb ea79 61bc be99 753c 9dac 5dbc
000001f0: 8722 2e3b d410 05bb 4433 04bc cb06 0f3c
0.010022289 -0.012418431 0.0006325606 0.022153873 0.007810285 -0.013245538 -0.0055941497 0.011089426
-0.0069379783 -0.0077428655 -0.0052381633 0.00021964071 0.021899218 0.012388533 -0.005537453 -0.004852046
-0.006746054 -0.00844583 0.006567538 0.0045293537 -0.003296671 -0.015083715 -0.0053173304 0.0049674157
-0.011034 0.0031688048 0.014992112 -0.00966096 -0.004434115 0.018280238 -0.011863345 0.011744187
0.011204635 -0.02062206 -0.0054848716 0.014055068 0.0027961314 -0.010460952 0.015125293 -0.005416875
0.022007877 -0.012508054 -0.009004304 -0.0034704155 -0.011004785 -0.004580212 0.009206526 -0.008203489
0.007988837 0.012392146 -0.0080504455 -9.912971e-05 0.011505693 -0.0042312914 -0.0077777943 0.01151824
0.012269373 -0.009886852 -0.009496489 0.0039164806 -0.009974414 -0.0050242282 -0.00903518 -0.022033624
0.014618453 -0.0016986947 0.0071574687 0.013322157 -0.0034734919 0.02277607 0.0059418506 -0.006793146
0.011005963 -0.010706519 0.008426484 -0.0028288017 0.0027677487 0.011829192 0.0057807923 0.0047881748
-0.0056788935 -0.00873852 -0.008114364 -0.010164721 -0.0036821058 0.021773636 0.008273809 -0.014302175
0.008240352 -0.0063425237 -0.0029064547 -0.007913958 -0.0031874 -0.011724094 -0.014415573 0.0009258743
0.00379437 0.00078309706 -0.012371172 -0.005789818 0.0063297804 0.004729705 0.002637161 0.0072567724
0.0057104034 -0.005347529 0.005106636 -0.0068383547 -0.0019664601 -0.0022502402 -0.006338328 0.0039189733
0.0013328316 -0.016546655 0.0072791562 -0.0062008495 -0.0017833831 0.003911968 -0.0092005525 0.0014771605
-0.005986232 -0.013761977 0.014990268 -0.013529924 0.0026570873 -0.002030422 -0.008068863 0.008729647

bn1.running_mean f4 [128]
00000000: f706 ec3b 1641 b13b 2c0a 733a 81d2 413b
00000010: ab35 39bb 583b 9aba 5030 8b3c f439 323f
00000020: bfc2 db3b ae90 2fbb fef7 a73b 8649 d33d
00000030: c09c 853b 150f 473c 2ae0 133c 625c 043c
00000040: cfd6 c2b9 2074 05b8 1f7f 9b3c 6ffc 4339
00000050: 5690 e6b9 10c3 3c3b 3dae 9f3b 9ce7 4538
00000060: 1ea4 debb 2a62 d4ba f2bd 333e 2547 6f3c
00000070: 60b7 51ba 6db5 ad3c c8bb 81b9 40d1 863c
00000080: 2be0 c43d 79bf a43a 0a4f 163f 50b3 033c
00000090: 7c41 2b3b 1bde 8b39 3ae0 7fba d800 783c
000000a0: 0875 583c e5f0 043b c238 a93b 3202 0c3b
000000b0: f33d 383c 2ec9 103c ecd3 7d3a 17d3 a0b9
000000c0: eea2 4c3e 323d 103f 3d42 e1b8 be56 7b3b
000000d0: 8a90 7e3a 7b03 c63a 86f7 c43b 1173 333f
000000e0: 82d4 163b 32ea 0c3b e44e 16b9 c7ac 5c3c
000000f0: 99e6 3abb 586c 2f3b d44d 9a3a cba2 753b
00000100: accc 4c3f e62e 56bb 9c19 0aba d545 4d3b
00000110: f58c cb3a daa6 ee3e 3e4d 63bb 3b56 203f
00000120: c1b9 593c ea10 1e3b e471 683f 429c 833a
00000130: 12e6 7a3b a1c0 0f3a 4625 8139 6a2b 1f3b
00000140: a6d3 073b 1102 f6b9 88d2 b1bb 8103 1b3b
00000150: 5c49 5e3b 19e5 09bb bb12 023f de20 cfb9
00000160: 5599 973a 6456 963c 5366 4eb9 e624 923b
00000170: 5624 9dbb bd61 d23a 9d17 c93c c543 ad3a
00000180: f6ed ba3b 4b6c f43b 9465 a03c 3bcc e5b9
00000190: 1187 163b c66e 483b db75 233a 4338 013c
000001a0: 6c22 d83c e9e2 3dbb 6abf e43b e06e cf3b
000001b0: 2080 bcb9 9f8e 233a e539 59ba 750d fa38
000001c0: 458e 4c3f 50c9 d6ba 03de 973e 4395 0e3c
000001d0: f604 5dbb 13ab 343c 9228 ce39 c032 2e3c
000001e0: d276 a83b b7d3 103b 3f85 8b3b 3ec1 ceba
000001f0: 2b99 093e 54a7 1c3d 1425 803b 1a67 493c
0.0072029787 0.00540937 0.000927123 0.0029574933 -0.0028260748 -0.0011766953 0.01699081 0.6961968
0.006706565 -0.0026789117 0.0051259985 0.10316758 0.004077524 0.012149592 0.009025613 0.008078666
-0.00037162608 -3.181782e-05 0.018981514 0.00018690688 -0.00043976557 0.002880279 0.0048730657 4.7184163e-05
-0.0067944666 -0.0016203572 0.17552927 0.0146043645 -0.0008000042 0.021204675 -0.00024744705 0.0164572
0.09613069 0.001256927 0.58714354 0.008038357 0.002613156 0.00026677627 -0.00097608904 0.01513692
0.013211496 0.0020285186 0.0051642368 0.0021363613 0.011245239 0.0088370275 0.0009682763 -0.00030674852
0.19984028 0.56343377 -0.00010741174 0.0038351263 0.0009710869 0.0015107238 0.0060109524 0.7009745
0.0023014848 0.0021501896 -0.00014334504 0.013468928 -0.0028518795 0.0026767459 0.0011772462 0.0037481065
0.79999804 -0.0032681762 -0.00052680983 0.003132214 0.0015529679 0.46611673 -0.003468349 0.6263158
0.013288916 0.0024118968 0.90798783 0.0010041075 0.0038284105 0.0005483721 0.00024632568 0.0024287351
0.0020725518 -0.00046922316 -0.0054267086 0.0023653212 0.0033918237 -0.0021041094 0.5080983 -0.00039506605
0.0011566082 0.018351741 -0.0001968381 0.004459965 -0.0047955913 0.0016050857 0.024547393 0.001321905
0.0057046367 0.0074591986 0.019579686 -0.00043830447 0.002296869 0.0030583604 0.00062355184 0.007886949
0.026383601 -0.002897436 0.006980826 0.006330356 -0.00035953615 0.0006239209 -0.000828652 0.000119234355
0.79904586 -0.00163869 0.2966157 0.008702579 -0.003372488 0.011027115 0.0003932161 0.010632217
0.0051411176 0.0022098848 0.0042578275 -0.0015774143 0.13437335 0.038245514 0.00391067 0.012292648

bn1.running_var f4 [128]
00000000: a578 e538 f52c b838 61fc ad38 d515 7738
00000010: b59c 1238 a4ca 9a39 5c3e 883a 3d81 cf3a
00000020: b378 423a 7ba2 9138 315b 1a39 b389 813b
00000030: b442 9f38 8fab 8d3a 5400 be39 c797 0c3b
00000040: 49ab 9138 d093 8d39 2645 623a d420 ae38
00000050: 7462 be38 2a8d 193a 77d9 b239 23d6 aa38
00000060: d183 7438 6a07 8a38 5182 283c 0047 4b3a
00000070: 8678 d138 75a1 ba3a a350 eb38 f959 583a
00000080: 230d 993b 1450 2d39 2feb 3e3b a039 7939
00000090: 55e0 3d39 d09e 9438 9eaa b538 b239 683a
000000a0: 0488 5d3a bf76 6838 33f0 4b39 17aa 4e39
000000b0: c3e0 6c3a bc75 133a 10dd 6738 f9a1 8438
000000c0: 8b88 f73b 4bc0 b53b b8c7 9a38 6d0a 6939
000000d0: f2e3 db38 eadd 6e38 4570 523a 8f7d d63a
000000e0: 4af1 8c39 ebd3 fa38 de9e 9339 15b6 d83a
000000f0: e6cc b937 1e69 d438 a92d 9038 f94a 2739
00000100: c2b6 113b 7663 6f38 0693 9738 8b77 f338
00000110: 8bbf dc38 4f7e b83b cb61 c337 ebef 0d3b
00000120: a1c6 1e3a b66a 8738 48e5 c93a 55fc eb38
00000130: a95f ea38 19ae 4a38 da9c 1939 5cf0 cd38
00000140: 3718 ce38 2b54 d138 4ff7 1f38 7f8c 9839
00000150: 8473 b338 5ae2 5b38 236f e83a 081a 9638
00000160: cce8 7e38 0001 8c3a f664 1939 0efc f738
00000170: 6efe 2b38 4593 2039 5313 243b 30db e839
00000180: fe4d 4d3a 4222 ff39 8ab8 a53a e6f9 1c39
00000190: 7719 1d39 72d9 ff38 8bc0 7438 39c5 1a39
000001a0: 374c 463a b3b5 a238 0fb5 9a39 63cf 143a
000001b0: e8e4 a738 9835 9038 05da 8c38 55a9 ab38
000001c0: bb38 9c3a b15f 7b38 a323 ab3b 0fc7 543a
000001d0: 7a04 b838 c90d 3739 ba7b 2e39 2752 3f3a
000001e0: 370a 5c39 78f3 8f39 a66c 1239 c3f6 0539
000001f0: c3a9 883b 38fc 413b 3f1d b638 8890 463a
0.00010942043 8.7821776e-05 8.296292e-05 5.890972e-05 3.4955057e-05 0.00029524148 0.0010394561 0.0015831363
0.0007418498 6.944403e-05 0.00014720556 0.0039531826 7.594135e-05 0.0010808575 0.00036239868 0.002145277
6.946043e-05 0.00027003745 0.000863152 8.303081e-05 9.078244e-05 0.0005857522 0.0003411283 8.146118e-05
5.8296897e-05 6.581734e-05 0.010284976 0.0007754415 9.988346e-05 0.0014238792 0.00011220693 0.0008253153
0.0046707555 0.00016528397 0.002913188 0.00023767957 0.00018108015 7.086771e-05 8.6625325e-05 0.0008858695
0.0008450749 5.54237e-05 0.0001944907 0.00019709054 0.00090361777 0.0005625149 5.5280572e-05 6.32442e-05
0.007554119 0.0055466047 7.380493e-05 0.00022224495 0.00010485192 5.6950295e-05 0.0008027594 0.0016364324
0.00026882655 0.00011960402 0.0002815639 0.0016533757 2.2149132e-05 0.00010128527 6.87496e-05 0.0001595429
0.0022234176 5.707467e-05 7.227626e-05 0.000116094096 0.00010526095 0.0056302915 2.329135e-05 0.0021657895
0.00060568197 6.457178e-05 0.0015403414 0.00011252674 0.000111758076 4.8322694e-05 0.00014649649 9.819932e-05
9.827356e-05 9.981574e-05 3.8138878e-05 0.00029096377 8.5569016e-05 5.2424475e-05 0.0017733317 7.157406e-05
6.0775128e-05 0.001068145 0.00014628828 0.00011824827 4.1006533e-05 0.00015313651 0.0025035932 0.00044413796
0.0007831751 0.00048662914 0.0012643498 0.00014970414 0.00014982173 0.0001219985 5.8353453e-05 0.00014760056
0.00075644575 7.758606e-05 0.00029508068 0.0005676655 8.005818e-05 6.876438e-05 6.7163295e-05 8.185456e-05
0.0011918762 5.9932183e-05 0.005222754 0.000811682 8.7746375e-05 0.00017457375 0.00016640025 0.00072983134
0.0002098464 0.00027456484 0.0001396412 0.00012775794 0.004170628 0.0029599797 8.683884e-05 0.00075746374

fc1.weight f4 [1, 6272]
00000000: f874 5fbd 0116 b1bd 8bfa 86bd 4c7f 78bd
00000010: f2d9 a6bd b296 9ebd 8a7f 73bd 8882 9bbd
00000020: 21a8 23bd 2c8c 72bd 403c 09bc c2b3 8ebc
00000030: 0619 56bd 3308 44bd 581f 87bd 1b6d 0bbd
00000040: 0169 253c c3cb 1abc b729 6e3d a7b0 fdbb
00000050: d7f7 063c dab2 a0bd c182 17bd f4cc e5bc
00000060: 69aa 643c 2822 9e3c 2778 d73b 7af3 d7bc
00000070: 42d1 89bd f551 1abd ba51 59bc 3bc9 6938
00000080: e302 1f3b 7ed2 173c f713 02bd 354e 4dbd
00000090: 6985 cfbc 8cc4 f73c 1ff4 c13c 7a44 e4bc
000000a0: 11b4 36bc 0322 bbbc d01b acbd e413 64bd
000000b0: bb1d c03b 7e42 df3c 8a11 cdbc aef7 87bd
000000c0: 00f2 d5bc abcd 56bd a86c 4abd cb4a 4abd
000000d0: 4557 5dbd 03a6 85bd 31be 85bd 66d3 83bd
000000e0: a2db 5bbd f5a5 d73b b04e dd3c 0026 aa3c
000000f0: 7253 39bc 2378 cc3c 5280 853c 15aa 08bd
00000100: cb3f d03c c198 173c a92e 7d3c ef0e 36b7
00000110: 81de e63c ce84 023d 2e66 04bd 9031 243c
00000120: 7e2d 83bb 4827 13bc 930c e63a f734 bb3c
00000130: 3353 1d3c 4fe2 13bd 5850 bb3c ca37 fbbc
00000140: 770b 3abb 1805 a9ba 8239 cb3c 6bcf 08bd
00000150: 3ec5 1cbd 54b9 f73c 1e5e e2bc e59e f43b
00000160: eb8e 1d3b 1700 563c 3614 66bc 1ddf 6fbd
00000170: 9d31 d83c 5832 123d facf 023c 6632 013b
00000180: 581b 6cbd 29b8 4bbc 9bd5 84bd 78b0 78bd
00000190: e836 67bd cffb 91bd b711 8cbd be38 28bd
000001a0: 3af5 42bd 4d6e 0abc beeb d63c 1f1d 893b
000001b0: 8224 6a3c 27c1 9539 ad9a 403c d2a3 083c
000001c0: 207b 8a3c 157e 113d ed3b 033d f12b ce3c
000001d0: 6efa 6fbb f296 063c e88e 683c 5d7d ea3c
000001e0: ea35 053d 3b13 b5ba 5ce1 8d3d 22af 973c
000001f0: 3462 de3c 05bf 0f3d 0d8b 063d 68b7 303d
00000200: eac8 c73b d715 483d 400e fe3c ac55 043d
00000210: 4c58 013d c77b 933c abe9 f43c 7bdd 473c
00000220: 4eaf f2bc 899a 843c d357 863c e955 a13c
00000230: fbfb c43c b171 973c 44d2 db3c 09f4 683d
00000240: 82b2 193c 8bb7 723c 789f c63c 9ab6 af3d
00000250: 8db8 863d f34e 733d d079 2a3d f7e3 da3c
00000260: 015e 603d fd7c 863d 5080 993d dd94 88bc
00000270: a5c2 9abb f44a 00bd 48c2 aebc 2e77 49bc
00000280: 2496 c5bc f8a8 8c3d 7400 97bc 5953 fdbc
00000290: fa64 d0bc 5b16 97bb e9db cbbc 5ebf a1bc
000002a0: 075b 9b3d 9c69 37bc 8c6e 1fbd e239 0cbd
000002b0: 7862 f8bc 4b38 8bbc 1d8d 103b 0764 9c3d
000002c0: 12f8 d7bc 7650 1fbd ce63 60bd ca30 a6bc
000002d0: 3dab e4bc e10a 2abc 407d 683d 2986 8ebc
000002e0: 4ee4 33bd cb98 13bd 70a0 d2bc 78d6 9ebc
000002f0: e927 1cbc 4abf a53d 782d 4fbc 3bad 73bc
00000300: c57b d5bc 0b0f 1ebc 8013 b53b 698a 03bd
00000310: cbb8 aebd 79ea 223e 575f e93d 1858 0b3e
00000320: 3af1 143e 21a2 203e 6519 1e3e d78f d6bd
00000330: 57cb f73d d41e bd3d a3c2 103d 2930 183d
00000340: c8ce fa3d 4a91 103e 3f89 f5bd 6dbf a53d
00000350: 9404 293d 7710 51bc af03 583c c1f3 87bc
00000360: 03d2 203e bd8e f4bd 6f5a 033d c8d2 4b3c
00000370: f028 c7bc 16fb 3c3b fc5c b5bc fc28 073e
00000380: 5784 e2bd f16c 263d 6e2a d53b 72bd 9ebb
00000390: b04f 0b3c f89b 433b 66d8 083e 82d7 f4bd
000003a0: bd85 5b3d ccae e03c d095 f2bc 46a3 c2bc
000003b0: f109 d93d 335b 083e e54e f6bd 1864 e43d
000003c0: 5299 573d c8be de3c 9d21 d13d a2e6 0c3e
000003d0: 2a11 263e 48d9 163c 86a4 8d3b 26a6 6e3c
000003e0: cea5 f3bb ad1e 0e3c d3a2 a1bb 26a8 193b
000003f0: 003b 863b 8943 bd3b 79d7 ffbb 98b9 f0bc
-0.05455491 -0.08646775 -0.06590756 -0.060668275 -0.081470385 -0.077435866 -0.059447803 -0.07593256
-0.039955262 -0.05921571 -0.008376181 -0.0174197 -0.052269958 -0.047859382 -0.06597775 -0.034039598
0.010095836 -0.009447995 0.05814525 -0.007742006 0.008237801 -0.07846613 -0.03698993 -0.02805183
0.013956645 0.019303396 0.0065756026 -0.026361216 -0.06729366 -0.037675817 -0.013264114 5.573894e-05
0.0024263195 0.009266494 -0.03175732 -0.050123412 -0.02533217 0.030245088 0.023675976 -0.027864683
-0.01115133 -0.022843366 -0.08403742 -0.05568303 0.005862919 0.027253386 -0.025032777 -0.06639038
-0.026116371 -0.052442234 -0.04942003 -0.049387734 -0.054038305 -0.06525805 -0.06530417 -0.064368054
-0.053676255 0.006581063 0.02701506 0.020770073 -0.011311399 0.02495963 0.01629654 -0.033365328
0.025421044 0.009252728 0.015453019 -1.0851522e-05 0.02818227 0.031864934 -0.03232401 0.010021582
-0.004003226 -0.008981533 0.0017551355 0.022852404 0.009602356 -0.036104497 0.02286546 -0.03066625
-0.0028388181 -0.0012895195 0.024807695 -0.033400934 -0.038274042 0.030239739 -0.02763277 0.0074652308
0.0024041485 0.013061545 -0.014042905 -0.058562387 0.026390845 0.035692543 0.007984156 0.0019713878
-0.057643265 -0.012434044 -0.064860545 -0.06071517 -0.056448847 -0.07128107 -0.06839316 -0.04106974
-0.047597148 -0.008449149 0.026235458 0.0041843797 0.014290931 0.00028563404 0.011755628 0.008339839
0.016904414 0.03552063 0.03203957 0.025167437 -0.0036617774 0.008214699 0.014194228 0.028624231
0.03252212 -0.0013814935 0.069277495 0.018516127 0.027146436 0.03509428 0.032847453 0.04314366
0.006096949 0.048848953 0.031012654 0.032308266 0.031578347 0.018003358 0.029896578 0.012198801
-0.029624607 0.01618697 0.0163993 0.019694285 0.024045935 0.01848683 0.02683366 0.056873355
0.0093809385 0.014814268 0.024245963 0.0857975 0.06578169 0.059401464 0.041620076 0.02672003
0.05477715 0.065668084 0.07495177 -0.016672546 -0.0047229105 -0.03132148 -0.021332875 -0.012296481
-0.024119444 0.06868166 -0.018432833 -0.030923532 -0.025438774 -0.0046108193 -0.024885135 -0.019744571
0.075857215 -0.011194613 -0.038923785 -0.03423489 -0.030320391 -0.016994616 0.0022056766 0.07636266
-0.026363406 -0.038895093 -0.05478268 -0.020286936 -0.027913684 -0.01037857 0.056760073 -0.017397957
-0.0439189 -0.036034387 -0.025711268 -0.019389376 -0.009531 0.08093126 -0.012645118 -0.014872844
-0.026059994 -0.009647141 0.005526006 -0.03211442 -0.0853134 0.15909757 0.11395138 0.13607824
0.14545146 0.15686847 0.15439375 -0.10476654 0.12099331 0.092343956 0.03534187 0.037155304
0.12246472 0.14117923 -0.11989068 0.08093152 0.04126413 -0.012760273 0.013184472 -0.016595723
0.15705113 -0.11941288 0.032068666 0.012440391 -0.024311513 0.0028836182 -0.022139065 0.13199228
-0.11060398 0.04063124 0.006505302 -0.004844361 0.008502886 0.0029847603 0.133638 -0.11955167
0.05359434 0.0274271 -0.029612452 -0.023759495 0.10597599 0.1331604 -0.12026767 0.11151904
0.052636452 0.027190581 0.10211489 0.13759854 0.16217485 0.009207077 0.0043225912 0.01456598
-0.007435537 0.008674306 -0.0049327402 0.0023446172 0.004096389 0.005775873 -0.0078076688 -0.029385373
